custom-model/tokenize/ko_gsd_tokenizer.pt (torch_old, 788640 bytes, 21 tensors)

embeddings.weight f4 [1165, 32]
0.0 0.0 0.0 0.0 0.0 0.0 0.0 0.0
0.0 0.0 0.0 0.0 0.0 0.0 0.0 0.0
0.0 0.0 0.0 0.0 0.0 0.0 0.0 0.0
0.0 0.0 0.0 0.0 0.0 0.0 0.0 0.0
-1.204855 0.5627836 -0.9361401 -0.7412352 -0.3461151 -0.137355 -1.9301578 0.2599482
0.6637278 0.038632818 -0.36213294 -0.9995613 1.5591403 -0.9528103 1.0226274 0.2339792
1.4438952 -0.03766586 -1.2639624 -1.7710915 -1.3650329 0.2268082 -1.0219201 0.5946431
1.1094396 1.5294842 0.6387318 0.4533495 0.023383936 -1.4693624 -1.4762641 0.54172146
1.4451884 1.3722938 0.4561611 -0.55920935 0.52956367 -1.6098127 0.4654155 1.1037298
-0.25245488 -0.37026724 -2.041451 1.3568807 1.3278204 -0.5185818 -1.4787731 1.2228574
0.6898896 -1.2818867 -1.204067 -1.2672572 0.94604945 0.9315534 -0.7872795 0.7413392
1.3874016 -1.7848889 -0.08521775 -1.212467 0.8916732 2.8550472 -2.1397622 0.3746506
0.8904729 1.8585944 -0.33351335 -0.19343412 1.409959 1.7087753 -1.2965798 -0.61875
-0.8760925 0.056035433 -1.689122 1.4142008 0.5049051 0.024866078 -0.13839637 0.889708
1.2155154 -0.2313739 2.767058 2.353084 -1.1983944 -0.87899625 1.5626711 1.0667285
0.4420401 -0.9332654 -0.15202533 1.9252545 0.81272435 -0.6183851 1.2905796 0.26722074
0.21692866 -1.0614511 -2.1157732 1.4379048 1.70219 0.74755305 -1.0162113 -2.1025496
-2.5919073 1.2334301 -1.2780123 -1.3382722 1.0250794 -1.0619171 1.1954844 1.7178544
-0.8254456 0.33579603 0.24081951 -2.286308 -1.7246795 -1.3823609 1.5171863 0.7999008
-2.09824 -1.0195258 1.5499761 -2.7673898 -1.2458651 -0.2208628 -0.35657623 -2.5455878
-0.33392665 -0.9333306 -1.1311245 0.9630562 0.4812763 0.34928212 -0.24888946 0.3358321
-1.8883437 -1.4026128 1.2753707 0.57573825 -0.23016462 -0.2534378 -0.68697995 -0.53655195
0.14122777 -0.44627365 -0.40511373 -0.41600692 0.097952686 -0.6070797 -0.5567277 0.5392944
0.69386184 0.37920997 -0.1793223 1.2551359 0.0034119268 1.889764 -0.7676701 1.2951858
-1.031121 0.27975434 -0.5544362 1.972639 1.6178594 0.5278229 0.5711254 -0.90296
0.43265077 -1.1050092 1.7330352 -1.3258057 -0.017595388 -0.5429097 -0.77798814 -2.0928767
-0.12809318 -1.1105224 -1.2685148 -0.6480292 -0.9086023 0.5264488 -0.4549561 -0.34945083
0.48679122 -0.49183613 1.1248102 -0.25053746 0.7062779 1.4899762 0.33795744 -0.10664398
0.15539344 -0.32559878 -0.53430957 3.3565934 0.68456894 0.059099972 1.0899993 -0.038435474
0.10591853 -2.683446 -1.3029847 0.7320467 0.005673641 0.48295796 -0.8352654 -0.06368516
-0.5243844 0.9559666 -0.20521422 0.12514904 0.57365376 0.48420718 -0.81133217 -1.5480987
-0.13468999 0.16177559 -0.68602633 0.42218682 -0.6544496 -0.30646002 1.1416578 -0.50699615
00000000: 0000 0000 0000 0000 0000 0000 0000 0000
00000010: 0000 0000 0000 0000 0000 0000 0000 0000
00000020: 0000 0000 0000 0000 0000 0000 0000 0000
00000030: 0000 0000 0000 0000 0000 0000 0000 0000
00000040: 0000 0000 0000 0000 0000 0000 0000 0000
00000050: 0000 0000 0000 0000 0000 0000 0000 0000
00000060: 0000 0000 0000 0000 0000 0000 0000 0000
00000070: 0000 0000 0000 0000 0000 0000 0000 0000
00000080: b038 9abf 9612 103f e1a6 6fbf 97c1 3dbf
00000090: 0036 b1be caa6 0cbe 690f f7bf ee17 853e
000000a0: 11ea 293f 723d 1e3d 7d69 b9be 40e3 7fbf
000000b0: e991 c73f 60eb 73bf 74e5 823f 3e98 6f3e
000000c0: 8fd1 b83f 8447 1abd 85c9 a1bf 20b3 e2bf
000000d0: 66b9 aebf 6940 683e 47ce 82bf 883a 183f
000000e0: 1e02 8e3f 23c6 c33f ed83 233f 6d1d e83e
000000f0: ab8f bf3c 1114 bcbf 39f6 bcbf 42ae 0a3f
00000100: effb b83f 53a7 af3f f38d e93e 5828 0fbf
00000110: 7c91 073f 580e cebf f14a ee3e 0547 8d3f
00000120: c441 81be ab93 bdbe 22a7 02c0 44ae ad3f
00000130: 05f6 a93f c7c1 04bf 7048 bdbf 9786 9c3f
00000140: 9b9c 303f dd14 a4bf de1e 9abf 7c35 a2bf
00000150: 4c30 723f 497a 6e3f 268b 49bf 68c8 3d3f
00000160: 6096 b13f 3d77 e4bf a586 aebd 1e32 9bbf
00000170: b244 643f 18b9 3640 ddf1 08c0 34d2 bf3e
00000180: 08f6 633f 6ce6 ed3f 43c2 aabe 9813 46be
00000190: 8979 b43f 26b9 da3f 54f6 a5bf 6666 1ebf
000001a0: 9947 60bf 6985 653d 2635 d8bf 8804 b53f
000001b0: 7641 013f f2b3 cb3c c7b7 0dbe e7c3 633f
000001c0: 0296 9b3f 48ed 6cbe 7a17 3140 ee98 1640
000001d0: fd64 99bf e605 61bf 9b05 c83f 8f8a 883f
000001e0: 1453 e23e 7bea 6ebf 87ac 1bbe bd6e f63f
000001f0: b40e 503f 7c4e 1ebf b631 a53f 28d1 883e
00000200: 8c22 5e3e a1dd 87bf d468 07c0 440d b83f
00000210: 5de1 d93f a35f 3f3f 3613 82bf 2c90 06c0
00000220: cfe1 25c0 0ae1 9d3f e895 a3bf 814c abbf
00000230: cd35 833f e6ec 87bf a205 993f a7e2 db3f
00000240: 6750 53bf 75ed ab3e 6499 763e df52 12c0
00000250: 4cc2 dcbf 34f1 b0bf 2933 c23f 4dc6 4c3f
00000260: 9049 06c0 d27f 82bf 9e65 c63f ea1c 31c0
00000270: 8278 9fbf dc29 62be 2991 b6be e9ea 22c0
00000280: 6ff8 aabe c1ee 6ebf b0c8 90bf da8a 763f
00000290: d969 f63e 1bd5 b23e e1dc 7ebe 2ff2 ab3e
000002a0: 3fb5 f1bf d188 b3bf 593f a33f 9563 133f
000002b0: 46b0 6bbe 99c2 81be ebdd 2fbf 785b 09bf
000002c0: 039e 103e fb7d e4be 116b cfbe dcfe d4be
000002d0: 6b9b c83d 9369 1bbf b585 0ebf 330f 0a3f
000002e0: eea0 313f cf27 c23e 44a0 37be 4ba8 a03f
000002f0: a29a 5f3b c9e3 f13f 0786 44bf a6c8 a53f
00000300: c6fb 83bf f63b 8f3e 88ef 0dbf 6f7f fc3f
00000310: 0416 cf3f 671f 073f 4635 123f 6328 67bf
00000320: 6784 dd3e f170 8dbf 19d4 dd3f 00b4 a9bf
00000330: 3424 90bc 21fc 0abf 3b2a 47bf b1f1 05c0
00000340: dc2a 03be 9925 8ebf b15e a2bf 3ee5 25bf
00000350: 299a 68bf 59c5 063f 02f0 e8be 38eb b2be
00000360: b33c f93e f2d1 fbbe c8f9 8f3f 7246 80be
00000370: a1ce 343f 8ab7 be3f c208 ad3e 2968 dabd
00000380: 751f 1f3e e2b4 a6be 83c8 08bf 6dd2 5640
00000390: e93f 2f3f d012 723d 1985 8b3f 846e 1dbd
000003a0: d0eb d83d 94bd 2bc0 34c8 a6bf 6a67 3b3f
000003b0: f3e9 b93b 4446 f73e f4d3 55bf 5d6d 82bd
000003c0: 0e3e 06bf 3aba 743f ad23 52be 1227 003e
000003d0: f9da 123f 01ea f73e 77b3 4fbf 1928 c6bf
000003e0: 2cec 09be 80a8 253e 6c9f 2fbf df28 d83e
000003f0: 028a 27bf 54e8 9cbe d821 923f 80ca 01bf

rnn.weight_ih_l0 f4 [256, 37]
-0.050737813 -0.23952909 -0.060508534 -0.08108817 0.06869461 -0.19819152 0.19997488 0.0788295
-0.12168352 -0.056632336 0.06832084 0.14219253 -0.070409715 0.0017082661 -0.17738968 -0.109055795
-0.2147178 0.35472003 0.12324573 -0.07980106 0.12336622 -0.061938696 -0.027289525 -0.112514295
-0.034618072 -0.097661786 -0.032793872 -0.17729759 0.15635997 0.098818466 -0.08616549 -0.17711282
-0.28496683 -0.27776077 0.0264103 0.10681352 0.11607954 0.0981044 0.29625914 0.016675118
-0.21510313 0.075708464 0.13423379 -0.24519844 -0.02321431 0.03136571 0.038901538 -0.095764056
0.19120742 -0.07485255 -0.19450042 0.10670939 0.08521035 0.34167013 -0.2986483 0.17014402
0.11367923 0.006497142 0.04802015 0.08408101 0.1356936 0.069134235 0.0742037 -0.063861474
0.17507738 0.2501531 0.0468644 -0.0038372348 0.12167499 0.21246725 -0.008790642 0.20383619
0.0178695 0.033296715 -0.10608513 -0.007444195 0.112311184 0.03655024 -0.030763293 -0.13781287
0.03957303 0.009029768 -0.10712963 -0.22112417 0.18776058 0.05913647 -0.101630926 0.21289906
-0.13996577 -0.06868889 -0.22646397 -0.11734087 -0.02952987 0.040192336 0.10741103 -0.12187984
0.015032656 0.049211606 -0.13798024 -0.08306992 -0.12696932 -0.06845235 0.08859137 0.05539774
0.044814304 -0.16924389 -0.093757495 0.24530058 0.037232056 0.08303728 0.06957458 -0.008697124
-0.15894467 0.14395869 -0.20754291 -0.25435704 -0.15870802 0.17317721 -0.20187119 0.16156712
0.034852497 -0.0038828752 -0.14357401 -0.04162351 0.13795944 0.15875511 -0.13263331 -0.17915542
-0.09121004 0.17064393 0.12218585 0.1565066 -0.16055627 -0.064037144 -0.042741448 -0.17583194
0.06356771 -0.18376891 -0.05018421 -0.055176202 -0.039213397 0.123040825 0.032396182 -0.4177776
-0.004435867 -0.34671864 -0.07542833 -0.0040235985 0.17413118 -0.22012673 0.051231857 0.36994475
0.22058283 0.35859716 0.020482795 -0.20125394 -0.029107835 -0.104239814 -0.021749219 0.06616925
-0.103639424 0.10421588 -0.002708237 -0.012358225 -0.035945594 -0.18359599 0.21856295 0.09406253
-0.07382946 -0.055218536 0.10633557 -0.20035894 -0.14824033 -0.3273763 -0.11512386 -0.19199724
-0.05135238 0.08876379 0.0902493 0.07260509 -0.04900183 0.035807837 0.28787574 0.080520436
0.059415698 -0.060255785 0.095225886 -0.12717658 0.014476641 0.07908263 -0.35558787 -0.12236234
0.19551684 -0.09842624 0.06345369 0.01845417 -0.15401629 -0.069053985 -0.045813356 0.14229289
0.021836998 -0.024415093 -0.18353221 -0.06947357 -0.262667 -0.009134132 0.069077976 0.0033328566
-0.0104594845 0.031322617 -0.0135767665 0.23164146 -0.028742475 -0.09626843 0.05256898 -0.27938485
-0.024559671 -0.073351346 0.0023143888 -0.11798243 -0.025161423 0.067276984 -0.041800905 0.12371093
-0.042095933 -0.000765503 -0.026895616 0.05159385 -0.27785128 -0.023751896 0.17999703 0.101293296
-0.025071247 -0.04377493 -0.033264197 0.017083855 0.053397577 0.0071624205 0.13124283 0.008740664
0.010874172 -0.13700902 -0.29308343 0.15737264 -0.0381736 0.057601858 0.11961446 -0.09769297
0.028792208 -0.11908373 0.10481903 0.09417917 -0.0955697 0.2127618 0.18476762 -0.009010422
00000000: 74d2 4fbd 1d47 75be ccd7 77bd 8e11 a6bd
00000010: c2af 8c3d b8f2 4abe 37c6 4c3e 5c71 a13d
00000020: 3635 f9bd 4ff7 67bd cceb 8b3d eb9a 113e
00000030: f832 90bd e6e7 df3a a4a5 35be a558 dfbd
00000040: fcde 5bbe dd9d b53e 4268 fc3d bd6e a3bd
00000050: 6ea7 fc3d 6eb3 7dbd 488e dfbc e56d e6bd
00000060: aecb 0dbd e702 c8bd de52 06bd 808d 35be
00000070: d41c 203e 5661 ca3d 8877 b0bd 105d 35be
00000080: 2ce7 91be a936 8ebe 6a5a d83c 0cc1 da3d
00000090: 1cbb ed3d f6ea c83d 47af 973e 429a 883c
000000a0: ff43 5cbe 0a0d 9b3d 9574 093e 4d15 7bbe
000000b0: f02b bebc 5579 003d 3857 1f3d f21f c4bd
000000c0: e1cb 433e 4b4c 99bd 1e2b 47be 748a da3d
000000d0: c482 ae3d 63ef ae3e 6ee8 98be 3c3a 2e3e
000000e0: a8d0 e83d fae5 d43b c7b0 443d aa32 ac3d
000000f0: 43f3 0a3e 4096 8d3d 1cf8 973d cec9 82bd
00000100: 7c47 333e 1114 803e e3f4 3f3d 1e7a 7bbb
00000110: bd30 f93d 0491 593e a006 10bc 6fba 503e
00000120: 0f63 923c 2362 083d 2943 d9bd 6fee f3bb
00000130: 6803 e63d b4b5 153d 4d03 fcbc d11e 0dbe
00000140: 5417 223d 98f1 133c c866 dbbd 606e 62be
00000150: 4f44 403e 1539 723d e023 d0bd 3602 5a3e
00000160: 3053 0fbe c3ac 8cbd 2ce6 67be 6950 f0bd
00000170: a0e8 f1bc b8a0 243d 50fa db3d 239c f9bd
00000180: 874b 763c 1c92 493d b14a 0dbe 9020 aabd
00000190: 3f04 02be bf30 8cbd 646f b53d bee8 623d
000001a0: 348f 373d 454e 2dbe ee03 c0bd 1330 7b3e
000001b0: a480 183d 730f aa3d 1e7d 8e3d 627e 0ebc
000001c0: 64c2 22be e869 133e 2186 54be 163b 82be
000001d0: 5b84 22be 5e55 313e 52b7 4ebe da71 253e
000001e0: 7ec1 0e3d d677 7ebb 1105 13be 6a7d 2abd
000001f0: 3d45 0d3e b390 223e 07d1 07be 8574 37be
00000200: 54cc babd 48bd 2e3e 933c fa3d 4443 203e
00000210: dd68 24be e825 83bd a811 2fbd 4a0d 34be
00000220: ca2f 823d eb2d 3cbe f58d 4dbd 7100 62bd
00000230: 3a9e 20bd d4fc fb3d dcb1 043d f2e6 d5be
00000240: c05a 91bb 1b85 b1be 2b7a 9abd 64d8 83bb
00000250: 724f 323e e768 61be 7fd8 513d 6669 bd3e
00000260: 77e0 613e 0c9a b73e 89cb a73c 8315 4ebe
00000270: 8e73 eebc af7b d5bd 6b2b b2bc be83 873d
00000280: e840 d4bd 236f d53d ad7c 31bb 277a 4abc
00000290: b03b 13bd 9600 3cbe f7ce 5f3e dba3 c03d
000002a0: e633 97bd d52c 62bd 77c6 d93d e52a 4dbe
000002b0: 50cc 17be de9d a7be 0fc6 ebbd ed9a 44be
000002c0: e056 52bd cac9 b53d a0d4 b83d fab1 943d
000002d0: 25b6 48bd 3dab 123d 7364 933e e6e7 a43d
000002e0: e05d 733d c5ce 76bd ca05 c33d 943a 02be
000002f0: 6f2f 6d3c 13f6 a13d 9d0f b6be 1b99 fabd
00000300: 9135 483e b293 c9bd 02f4 813d 332d 973c
00000310: 72b6 1dbe 2d6c 8dbd c9a6 3bbd 3ab5 113e
00000320: 81e3 b23c 2902 c8bc deef 3bbe 2948 8ebd
00000330: 4a7c 86be 54a7 15bc c178 8d3d 0e6c 5a3b
00000340: 425e 2bbc 254c 003d 1671 5ebc 6b33 6d3e
00000350: 5775 ebbc 6228 c5bd 9252 573d 880b 8fbe
00000360: 5d31 c9bc 3b39 96bd 00ad 173b c6a0 f1bd
00000370: 541f cebc 84c8 893d 6d37 2bbd 285c fd3d
00000380: c96c 2cbd 09ac 48ba 3254 dcbc 1354 533d
00000390: 8642 8ebe 5693 c2bc 2451 383e dc72 cf3d
000003a0: 3762 cdbc 574d 33bd 0a40 08bd 71f3 8b3c
000003b0: 6bb7 5a3d bdb2 ea3b 8564 063e 0135 0f3c
000003c0: 9529 323c 184c 0cbe 080f 96be 4b26 213e
000003d0: ec5b 1cbd edef 6b3d 6df8 f43d 4013 c8bd
000003e0: a3dd eb3c 2ce2 f3bd 5cab d63d 02e1 c03d
000003f0: 0cba c3bd 3bde 593e b933 3d3e 73a0 13bc

rnn.weight_hh_l0 f4 [256, 64]
0.060834177 -0.09311571 -0.018816618 -0.02937883 0.04108842 0.0747625 -0.006427974 -0.022596868
0.115235925 0.027965551 -0.01618286 0.0417611 -0.08058202 0.15195517 -0.1429378 -0.038716
-0.20363234 -0.14625491 0.07299902 0.026408093 -0.24308416 -0.18010238 0.21396944 -0.103151746
-0.007833571 0.08611151 0.086033836 -0.14133276 -0.051012408 0.11389643 0.03979966 0.06573454
0.20382209 0.009989651 -0.03902587 -0.076950274 0.051103786 0.0722031 -0.037501212 0.07920953
-0.095671155 -0.1319485 -0.06277268 -0.014878393 0.07256275 0.028218789 0.026948733 0.14576007
-0.23464802 -0.017690357 0.101159416 -0.042913415 -0.055599127 -0.12123778 0.06548374 0.048430607
0.12766908 -0.1604694 -0.104742974 -0.03423094 0.16748962 0.026209405 0.11095182 0.04109122
-0.12093439 0.22908305 0.0061668158 0.057827443 0.1287711 -0.14997703 -0.08956473 0.11433656
0.033092782 0.119406395 -0.281428 0.109637864 0.15115194 0.26093385 0.23783185 0.37010533
-0.26982662 0.34994063 0.0031734211 -0.09936026 0.017070502 0.2187405 -0.040454526 -0.14085248
-0.24808131 0.12762332 -0.02668766 -0.114224374 -0.33637497 -0.019503267 -0.09037036 0.15419993
0.031265836 0.007916441 -0.11507162 -0.20370233 -0.089453556 -0.23496985 -0.03879507 0.42427757
0.18850408 -0.3063483 0.012382509 0.15521252 0.07056931 0.0052489163 -0.1270277 -0.05550822
0.41472855 -0.101461984 0.16297188 0.33030078 0.09301467 -0.21481188 0.19378102 -0.20507652
-0.19925499 -0.070926845 -0.14867356 0.14651762 -0.28361708 0.09471549 -0.090955645 -0.06774914
0.046076506 -0.042487778 0.078446515 0.20028833 -0.10488783 -0.25825801 -0.09680819 -0.08101489
-0.1192112 0.1513906 0.27279285 0.14182961 0.2576649 -0.18461934 0.050219525 0.013488632
-0.08050453 0.033696704 0.022698712 0.016012654 0.03383322 -0.06048368 -0.07367167 0.16593102
0.12478649 -0.17966886 -0.101622656 -0.14446153 -0.038882572 0.10680072 0.16868632 0.036302365
-0.062303346 0.0413439 0.09809356 -0.11815281 0.10060691 -0.15710439 -0.039008435 -0.10888717
0.07886106 0.043848705 0.11517143 0.24028115 -0.022539025 -0.15471673 -0.04944765 -0.064751595
0.2601481 -0.013653243 0.048079524 -0.09148848 -0.055576723 0.058916707 -0.01232217 -0.09509872
-0.04295396 0.058615148 0.010255563 0.07088447 -0.036857884 0.057243966 0.05893303 0.1650884
-0.110444546 -0.012780936 0.049723115 -0.095418334 -0.09612993 -0.103114486 -0.046290893 0.0488596
0.008589661 0.102080904 -0.022420725 0.06569476 0.15627034 -0.14215216 0.192746 -0.036128867
0.09523104 0.05610245 -0.05739516 0.04950518 0.0021194872 0.1755965 -0.11391713 0.14674996
0.0144602405 0.06408402 -0.043296188 0.1256857 -0.018774848 0.1273428 0.04804151 0.11989341
-0.13562548 0.11213809 0.08844863 0.07751782 0.06427045 -0.06775467 0.018073913 -0.091691405
0.08653119 0.09462595 0.11277721 -0.010047156 0.18716584 0.13878343 0.02641541 -0.022927118
0.24565195 -0.08357112 -0.0097293155 -0.014975927 0.18747793 0.13439721 0.16469975 0.09254963
0.037101984 0.19289331 0.16634648 0.051169287 -0.0003562279 -0.015662923 -0.1019775 -0.039720364
00000000: 422d 793d 73b3 bebd 4f25 9abc dfab f0bc
00000010: 554c 283d 151d 993d c1a1 d2bb 111d b9bc
00000020: d000 ec3d 0318 e53c eb91 84bc b00d 2b3d
00000030: 3008 a5bd 239a 1b3e 495e 12be ab94 1ebd
00000040: ff84 50be d9c3 15be 8380 953d c955 d83c
00000050: 0eeb 78be c26c 38be ce1a 5b3e 3941 d3bd
00000060: 6158 00bc 3b5b b03d 8232 b03d 89b9 10be
00000070: 63f2 50bd 8842 e93d f804 233d d59f 863d
00000080: bdb6 503e a2ab 233c 97d9 1fbd 1b98 9dbd
00000090: 3452 513d 38df 933d df9a 19bd 9b38 a23d
000000a0: 3def c3bd 821d 07be f68e 80bd 81c4 73bc
000000b0: c79b 943d 172b e73c 97c3 dc3c 2142 153e
000000c0: 9247 70be 5eeb 90bc ab2c cf3d fac5 2fbd
000000d0: e9bb 63bd 834b f8bd 571c 863d 2c5f 463d
000000e0: afbb 023e 1752 24be 7c83 d6bd be35 0cbd
000000f0: 6682 2b3e 1bb5 d63c b53a e33d 444f 283d
00000100: 73ac f7bd bf94 6a3e 0013 ca3b 78dc 6c3d
00000110: 92dc 033e 9493 19be b76d b7bd 4929 ea3d
00000120: 4c8c 073d 578b f43d 5517 90be d189 e03d
00000130: 93c7 1a3e 1f99 853e 318a 733e 727e bd3e
00000140: b726 8abe 6b2b b33e 2cf9 4f3b 647d cbbd
00000150: 70d7 8b3c 82fd 5f3e a5b3 25bd a23b 10be
00000160: 0709 7ebe b0af 023e 14a0 dabc 78ee e9bd
00000170: 5739 acbe 51c5 9fbc 1814 b9bd 96e6 1d3e
00000180: 9b10 003d f6b3 013c abaa ebbd 5897 50be
00000190: 6d33 b7bd f09b 70be 94e7 1ebd e93a d93e
000001a0: 3707 413e afd9 9cbe 02e0 4a3c 08f0 1e3e
000001b0: a486 903d 1aff ab3b 8d13 02be 965c 63bd
000001c0: 4d57 d43e 4dcb cfbd 1ae2 263e 2f1d a93e
000001d0: 7a7e be3d a5f7 5bbe 886e 463e 94ff 51be
000001e0: 8009 4cbe 1842 91bd e23d 18be b708 163e
000001f0: 4236 91be 32fa c13d f446 babd 10c0 8abd
00000200: b8ba 3c3d aa07 2ebd 91a8 a03d 6218 4d3e
00000210: 6ecf d6bd 653a 84be 5f43 c6bd 22eb a5bd
00000220: 0025 f4bd 2306 1b3e 81ab 8b3e c83b 113e
00000230: a7ec 833e da0c 3dbe fdb2 4d3d 6cff 5c3c
00000240: 8fdf a4bd 8e05 0a3d a6f2 b93c f82c 833c
00000250: b494 0a3d bcbd 77bd 2ce1 96bd d2e9 293e
00000260: 0f90 ff3d 1dfb 37be 8a1f d0bd b9ed 13be
00000270: 5543 1fbd 56ba da3d 1bbc 2c3e cab1 143d
00000280: cb31 7fbd 3958 293d 47e5 c83d 1afa f1bd
00000290: ff0a ce3d f9df 20be 4fc7 1fbd 3d00 dfbd
000002a0: e881 a13d b39a 333d 00df eb3d 430c 763e
000002b0: c3a3 b8bc 106e 1ebe 9e89 4abd 7c9c 84bd
000002c0: 2232 853e dab1 5fbc 09ef 443d 505e bbbd
000002d0: 6ba4 63bd a552 713d ede2 49bc 1ec3 c2bd
000002e0: 7ef0 2fbd 7016 703d f306 283c e12b 913d
000002f0: 4bf8 16bd a678 6a3d c363 713d ef0c 293e
00000300: c030 e2bd 2267 51bc 77aa 4b3d b06a c3bd
00000310: c5df c4bd b02d d3bd 859b 3dbd 0121 483d
00000320: a6bb 0c3c cb0f d13d abab b7bc f98a 863d
00000330: 5505 203e 5690 11be 355f 453e ddfb 13bd
00000340: 7e08 c33d afcb 653d 3017 6bbd f2c5 4a3d
00000350: 18e7 0a3b 92cf 333e 624d e9bd 9f45 163e
00000360: a5ea 6c3c 7c3e 833d 5857 31bd c1b3 003e
00000370: b6cd 99bc 2766 023e 2dc7 443d ad8a f53d
00000380: 68e1 0abe a8a8 e53d 8e24 b53d aac1 9e3d
00000390: 3aa0 833d f6c2 8abd be0f 943c b4c8 bbbd
000003a0: 4437 b13d 40cb c13d bdf7 e63d d49c 24bc
000003b0: 67a8 3f3e 3e1d 0e3e 2165 d83c a7d1 bbbc
000003c0: 2f8c 7b3e 5627 abbd b567 1fbc 975d 75bc
000003d0: 37fa 3f3e 6c9f 093e 0da7 283e a98a bd3d
000003e0: 40f8 173d d385 453e bb56 2a3e e396 513d
000003f0: 19c4 bab9 884f 80bc 94d9 d0bd d2b1 22bd

rnn.bias_ih_l0 f4 [256]
0.13186322 0.1890904 0.0071680695 0.081267506 0.106928304 0.1790841 0.23792505 0.20309967
0.017926963 0.05004378 0.08590345 0.09671944 0.18898524 0.12746282 0.12326555 0.1500373
0.08394456 0.013026889 0.18418725 0.14720917 -0.068621464 0.02643783 0.08888214 0.0761557
0.037810747 0.17949608 0.4138237 0.037134077 0.09622238 0.192315 -0.010576582 0.08548462
0.29923898 0.09198329 0.10585528 0.1647757 0.046608493 -0.032290805 0.023736564 0.24262393
0.03374173 0.08664606 -0.048958868 0.09278649 -0.027904328 0.15271428 0.17497037 0.21752448
0.037780616 0.23473072 0.029374577 -0.1295741 0.057423398 -0.014148522 -0.029906878 0.004506965
0.033323973 0.10501623 0.13733813 -0.050650053 0.117579654 0.009124122 0.23741983 0.09269368
-0.12069991 0.1538723 0.09221054 0.0028338747 -0.0919807 -0.14478059 0.3864167 0.34139785
-0.07182206 -0.10830835 -0.1431302 -0.086073175 0.016733907 -0.044934988 -0.06442154 -0.056854814
0.06993493 -0.183808 0.062295206 -0.00567528 0.010111661 0.059436616 -0.035349283 -0.02223394
-0.06911579 -0.0027040627 0.23506749 -0.057250194 0.029363034 0.24803515 0.00085536053 0.032477237
0.23669837 -0.01329557 0.20617332 -0.20374322 -0.23232023 0.008522197 -0.11686746 0.0023589553
-0.10609676 0.089683086 -0.10113026 0.044646315 0.005624439 -0.036247946 -0.09941475 0.31370172
-0.15350923 0.05215821 0.19859478 -0.1657008 -0.05783041 -0.15082438 -0.0020229607 -0.030142337
0.017182598 -0.070774354 0.10932344 -0.12427788 0.07174257 -0.059316464 0.10948796 -0.08824032
0.047936063 0.13441846 0.31699628 -0.18452111 0.19814599 0.11369248 -0.31012124 0.18708436
-0.034761246 -0.13650048 -0.16537648 0.0736903 -0.05186437 0.041617885 -0.02183423 0.2081358
0.04467583 0.028965661 0.27602074 -0.1388768 -0.05547812 -0.0126981605 0.18908507 -0.07185795
-0.075020395 0.20816886 0.29434803 -0.06795077 -0.07104567 0.34877843 -0.16803406 0.24846517
0.28381002 -0.022071883 0.038852137 -0.09178268 -0.01264177 0.26072294 -0.31658882 0.29670733
-0.24400164 -0.108238444 -0.06972358 -0.13790298 -0.07309476 0.053321004 0.09715509 0.37234163
-0.019708974 -0.0004629812 -0.008517799 -0.053082217 -0.12388057 -0.12759274 -0.07110529 0.24168807
0.16309714 -0.025179736 -0.16929722 0.06299508 0.021566674 -0.025729531 0.12638478 -0.10139747
0.07089935 -0.048969187 0.0046061734 0.15524879 0.19187437 0.20605952 0.069738396 -0.058211997
-0.016790085 0.08408221 0.03393904 -0.043131758 0.17998022 0.08671957 0.093734756 0.0815851
0.09878163 -0.029960543 0.055049766 0.2013854 0.083647914 -0.032130502 -0.00081852986 0.043215014
-0.0477845 0.0475173 -0.0121263135 0.000961042 0.036861822 -0.05981869 0.20648058 0.16205552
0.1951419 0.08191569 -0.07258097 -0.0038289304 0.16783497 -0.0024044982 0.16089234 -0.02994
0.052300446 0.18904538 -0.02914987 0.24805146 -0.0115374215 0.118191876 0.021454493 0.026141237
0.0941454 0.0226894 0.0029021404 0.0734732 0.18218304 0.19535667 0.15981267 0.0021829193
-0.0015451538 -0.032507256 0.20331673 -0.006791306 0.11811933 0.20971018 0.2119644 0.053069357
00000000: 2707 073e eaa0 413e 20e2 ea3b 946f a63d
00000010: 3afd da3d d361 373e a0a2 733e 5cf9 4f3e
00000020: 91db 923c b5fa 4c3d 26ee af3d d714 c63d
00000030: 5985 413e 9d85 023e a672 fc3d 61a3 193e
00000040: 20eb ab3d bc6e 553c 959b 3c3e 00be 163e
00000050: 6989 8cbd 2694 d83c d707 b63d 85f7 9b3d
00000060: 71df 1a3d d2cd 373e b3e0 d33e e719 183d
00000070: 3d10 c53d 39ee 443e 6649 2dbc 8f12 af3d
00000080: da35 993e bc61 bc3d a7ca d83d f6ba 283e
00000090: 8ce8 3e3d 5d43 04bd 2f73 c23c 6872 783e
000000a0: c534 0a3d 7d73 b13d 1889 48bd d806 be3d
000000b0: 9e97 e4bc 2261 1c3e 6f2b 333e bdbe 5e3e
000000c0: d9bf 1a3d 405d 703e f4a2 f03c 13af 04be
000000d0: cc34 6b3d 34cf 67bc 45ff f4bc 2aaf 933b
000000e0: b87e 083d c012 d73d 5ea2 0c3e 6e76 4fbd
000000f0: 9acd f03d 577d 153c 2f1e 733e 2fd6 bd3d
00000100: 8431 f7bd b390 1d3e e1d8 bc3d 87b8 393b
00000110: 6160 bcbd 5d41 14be 69d8 c53e b3cb ae3e
00000120: 7217 93bd c5d0 ddbd b990 12be 2247 b0bd
00000130: 8c15 893c c00d 38bd 71ef 83bd 98e0 68bd
00000140: 0b3a 8f3d 2a38 3cbe 4229 7f3d b3f7 b9bb
00000150: 61ab 253c cf73 733d 69ca 10bd f423 b6bc
00000160: 948c 8dbd a536 31bb 88b5 703e 2e7f 6abd
00000170: bf8a f03c edfc 7d3e 463a 603a da06 053d
00000180: 0f61 723e aad5 59bc 191f 533e 10a2 50be
00000190: 5be5 6dbe afa0 0b3c 3558 efbd b498 1a3b
000001a0: 4249 d9bd c4ab b73d 621d cfbd 0edf 363d
000001b0: 374d b83b ba78 14bd f699 cbbd 839d a03e
000001c0: 8631 1dbe d9a3 553d 6e5c 4b3e 78ad 29be
000001d0: 94df 6cbd b571 1abe a693 04bb 10ed f6bc
000001e0: 85c2 8c3c 25f2 90bd f8e4 df3d 6785 febd
000001f0: c5ed 923d d2f5 72bd 393b e03d 57b7 b4bd
00000200: 9b58 443d fea4 093e 564d a23e 1af3 3cbe
00000210: c8e6 4a3e 9ad7 e83d 36c8 9ebe 0b93 3f3e
00000220: cf61 0ebd c8c6 0bbe 7458 29be f1ea 963d
00000230: bc6f 54bd 8477 2a3d b3dd b2bc 8d21 553e
00000240: 01fe 363d 6549 ed3c 9752 8d3e b835 0ebe
00000250: 063d 63bd f20b 50bc 849f 413e 432a 93bd
00000260: 4ba4 99bd 382a 553e c9b4 963e c629 8bbd
00000270: 6480 91bd 1693 b23e 1f11 2cbe a76d 7e3e
00000280: 8c4f 913e 18d0 b4bc 6b23 1f3d 8ff8 bbbd
00000290: 6d1f 4fbc 7a7d 853e ee17 a2be 06ea 973e
000002a0: 91db 79be 1eac ddbd 3ccb 8ebd 7036 0dbe
000002b0: b5b2 95bd 2067 5a3d 3ff9 c63d 90a3 be3e
000002c0: b774 a1bc 49bc f2b9 3d8e 0bbc bd6c 59bd
000002d0: 19b5 fdbd aca7 02be a69f 91bd 147d 773e
000002e0: f002 273e bc45 cebc 405c 2dbe 9103 813d
000002f0: 98ac b03c bdc6 d2bc 036b 013e 7aa9 cfbd
00000300: ae33 913d ea93 48bd 62ef 963b 8af9 1e3e
00000310: b77a 443e 4401 533e 01d3 8e3d b46f 6ebd
00000320: 5c8b 89bc 4b33 ac3d aa03 0b3d edaa 30bd
00000330: bc4c 383e 089a b13d 02f8 bf3d 1716 a73d
00000340: 064e ca3d d06f f5bc dd7b 613d f937 4e3e
00000350: 994f ab3d 469b 03bd 9c92 56ba 3a02 313d
00000360: aeb9 43bd 80a1 423d 72ad 46bc 70ee 7b3a
00000370: 6cfc 163d 7104 75bd a56f 533e e2f1 253e
00000380: 47d3 473e 6ac3 a73d 55a5 94bd cbee 7abb
00000390: eedc 2b3e c994 1dbb f6c0 243e bb44 f5bc
000003a0: fe38 563d 1d95 413e b5cb eebc 3401 7e3e
000003b0: 7407 3dbc 950e f23d 55c1 af3c 2626 d63c
000003c0: 4ecf c03d 1fdf b93c d631 3e3b 1e79 963d
000003d0: 318e 3a3e 940b 483e efa5 233e 4f0f 0f3b
000003e0: c286 caba 5426 05bd 4332 503e 9b89 debb
000003f0: 8ce8 f13d 44be 563e 320d 593e 415f 593d

rnn.bias_hh_l0 f4 [256]
0.13626532 0.047735125 0.037178658 0.076883495 -0.0011914005 0.18885343 0.12083767 0.2871945
0.15313709 0.10622262 0.12780918 0.052519448 0.105611816 0.11073275 -0.055792063 0.09328766
0.10016022 0.08712064 0.23117593 0.066152856 -0.07442787 0.11710687 -0.015242272 0.06772053
0.027697735 0.07250082 0.2575017 0.10221649 -0.050499506 0.19726898 0.09364357 0.2656106
0.23053129 0.0876127 -0.05693891 0.20530315 -0.014142896 0.015474573 0.12452614 0.23733954
0.005896252 0.13851671 -0.015443467 0.13323222 0.13283211 -0.014723327 0.042222958 0.43074274
0.07788284 0.118918106 0.06185498 -0.11396748 0.081862904 0.15690942 0.14929816 -0.15689832
-0.05467143 -0.009251154 -0.025948126 -0.0125046 -0.029702613 0.057484474 0.016442103 0.042545248
-0.06842108 0.048590567 0.089969106 -0.14388575 0.0797968 -0.22304027 0.34002694 0.28564164
-0.017594205 -0.10327557 -0.22892778 0.015622685 -0.19472276 -0.046648696 -0.15985999 0.09885707
-0.081862435 0.032603864 -0.10102333 -0.14594115 0.101871826 0.042464864 0.01809505 0.0063839266
0.010816781 0.06453767 0.15347172 0.022884645 -0.04995169 0.18422379 -0.11458682 -0.019467376
0.17157201 0.049715165 0.12051194 -0.19498271 -0.03108086 -0.1063049 -0.11824296 0.1361458
-0.17924534 0.07918911 -0.036266237 -0.12831736 -0.09389248 -0.21037695 -0.11852949 0.20053755
-0.0859832 0.06420866 0.23594742 -0.10017959 0.06115389 -0.12396955 -0.007808942 -0.03663677
-0.05552983 -0.14992239 -0.09252761 -0.047199022 -0.09311233 -0.087318204 0.10854729 -0.1786366
-0.13661042 0.12132759 0.4080392 -0.05647617 0.118732706 -0.021357238 -0.25559944 0.38957575
-0.005751116 -0.19101831 0.029568441 -0.06630923 0.048290923 0.14908731 -0.12879448 0.1978931
0.0670313 0.063553475 0.25972402 -0.07465215 -0.07159056 -0.06994341 0.17350009 -0.0020751278
-0.1585536 0.13592218 0.32004339 -0.07989242 0.079456866 0.2188866 -0.07493011 0.046159044
0.21409175 -0.053432863 0.039450023 -0.059365213 0.023044953 0.2469723 -0.36292827 0.19204395
-0.12488114 0.016958853 -0.13553238 -0.1099774 -0.045803085 -0.07548413 0.035929203 0.33076346
-0.032032944 -0.038414303 0.01760454 0.04843116 0.052079923 -0.039828926 0.06794798 0.0954242
0.09182286 0.074281506 -0.19409963 0.039185148 0.18355212 0.1294377 0.03131791 -0.1587745
0.025289048 0.045337576 0.0057633035 0.14439009 0.11309436 0.14512192 -0.013203762 4.4288645e-05
-0.03985626 -0.08485133 0.24689966 0.06143429 0.07167711 0.004762916 0.12274627 0.13019663
0.11046078 0.104723364 0.113128394 0.011992498 0.06171251 0.15281138 0.13554674 0.1118241
0.15660028 -0.021277364 0.012266659 0.17958084 -0.037752263 0.030651988 0.24064033 0.084496655
0.12756969 0.1673396 0.10067858 0.15744333 0.20465338 -0.037860937 0.18523645 -0.04226848
0.15141936 0.13553904 0.11913165 0.25914654 0.06953431 0.06797727 -0.011446253 -0.059268627
-0.01014851 0.1078616 -0.196024 -0.050165884 0.18839873 0.23044118 -0.025699832 0.024100827
0.115737274 0.16679825 0.14012848 0.1812174 0.13918261 0.02884069 0.35548547 0.18006386
00000000: 2389 0b3e e885 433d a648 183d 1875 9d3d
00000010: c428 9cba cb62 413e be79 f73d 280b 933e
00000020: f8cf 1c3e 3f8b d93d 69e0 023e a21e 573d
00000030: 024b d83d dac7 e23d 3886 64bd 9a0d bf3d
00000040: cd20 cd3d 4e6c b23d 62b9 6c3e 267b 873d
00000050: a46d 98bd bad5 ef3d b9ba 79bc 10b1 8a3d
00000060: 5ce6 e23c 4f7b 943d 43d7 833e e156 d13d
00000070: 92d8 4ebd e100 4a3e 33c8 bf3d 1dfe 873e
00000080: 6510 6c3e 4a6e b33d c638 69bd fd3a 523e
00000090: 9bb7 67bc 1089 7d3c 9007 ff3d 2309 733e
000000a0: 5935 c13b 53d7 0d3e 9806 7dbc 076e 083e
000000b0: 2405 083e 1c3a 71bc fbf1 2c3d 508a dc3e
000000c0: 0a81 9f3d 568b f33d a65b 7d3d c867 e9bd
000000d0: bda7 a73d ddac 203e 9ee1 183e f4a9 20be
000000e0: 26ef 5fbd 2792 17bc 2a91 d4bc 18e0 4cbc
000000f0: e552 f3bc d774 6b3d 97b1 863c ed43 2e3d
00000100: 5a20 8cbd e706 473d b941 b83d c956 13be
00000110: 816c a33d ab64 64be 0318 ae3e 9f3f 923e
00000120: b921 90bc 2482 d3bd 0b6c 6abe 4af6 7f3c
00000130: 6765 47be b412 3fbd 56b2 23be 9375 ca3d
00000140: 7ea7 a7bd a18b 053d 52e5 cebd 9971 15be
00000150: 2da2 d03d a3ef 2d3d 123c 943c 4230 d13b
00000160: de38 313c 532c 843d b127 1d3e 9478 bb3c
00000170: 259a 4cbd 29a5 3c3e 7fac eabd 0c7a 9fbc
00000180: 93b0 2f3e 21a2 4b3d f7ce f63d 8ca9 47be
00000190: 4a9d febc 62b6 d9bd 5d29 f2bd ce69 0b3e
000001a0: 178c 37be e62d a23d e88b 14bd a065 03be
000001b0: b34a c0bd 0e6d 57be 97bf f2bd b759 4d3e
000001c0: f617 b0bd d47f 833d 339c 713e f52a cdbd
000001d0: 807c 7a3d bfe3 fdbd 27e2 ffbb 7010 16bd
000001e0: 3f73 63bd 4185 19be 1e7f bdbd c353 41bd
000001f0: adb1 bebd e3d3 b2bd 0b4e de3d 83ec 36be
00000200: 9ae3 0bbe 997a f83d 84ea d03e 8e53 67bd
00000210: 222a f33d 60f5 aebc eedd 82be 7976 c73e
00000220: dc73 bcbb 4e9a 43be 8439 f23c 22cd 87bd
00000230: b4cc 453d 58aa 183e b3e2 03be 7da4 4a3e
00000240: b547 893d 5328 823d 8cfa 843e 3ae3 98bd
00000250: 129e 92bd 7e3e 8fbd 02aa 313e defe 07bb
00000260: e05b 22be 2f2f 0b3e badc a33e a39e a3bd
00000270: 48ba a23d cf23 603e f574 99bd 4411 3d3d
00000280: de3a 5b3e 6bdc 5abd 5996 213d f028 73bd
00000290: c5c8 bc3c 4ee6 7c3e bcd1 b9be 2ba7 443e
000002a0: afc1 ffbd 4bed 8a3c 00c9 0abe d53b e1bd
000002b0: 049c 3bbd 6c97 9abd 802a 133d d459 a93e
000002c0: fa34 03bd 5158 1dbd 6537 903c c15f 463d
000002d0: c251 553d a823 23bd 4f28 8b3d c36d c33d
000002e0: a00d bc3d e720 983d 0ec2 46be 9b80 203d
000002f0: 16f5 3b3e 518b 043e 3547 003d c895 22be
00000300: fa2a cf3c e5b3 393d 18da bc3b ffda 133e
00000310: 049e e73d d79a 143e 9754 58bc 92c2 3938
00000320: 5140 23bd 89c6 adbd 44d3 7c3e 86a2 7b3d
00000330: 73cb 923d 3c12 9c3b 6562 fb3d 4452 053e
00000340: 4339 e23d 3479 d63d dcaf e73d 2f7c 443c
00000350: 42c6 7c3d 967a 1c3e c4cc 0a3e 0904 e53d
00000360: d35b 203e de4d aebc 19fa 483c 0ae4 373e
00000370: 1ea2 1abd e119 fb3c 6b6a 763e 950c ad3d
00000380: a1a1 023e 125b 2b3e 9230 ce3d d338 213e
00000390: a890 513e 1214 1bbd a0ae 3d3e b721 2dbd
000003a0: ad0d 1b3e bfca 0a3e 4bfb f33d dbae 843e
000003b0: 0168 8e3d ab37 8b3d 1189 3bbc a9c3 72bd
000003c0: f045 26bc 8be6 dc3d 84ba 48be be7a 4dbd
000003d0: 99eb 403e c6f8 6b3e 7488 d2bc 196f c53c
000003e0: aa07 ed3d 29cd 2a3e d77d 0f3e 0e91 393e
000003f0: e385 0e3e 5043 ec3c 3102 b63e a962 383e

rnn.weight_ih_l0_reverse f4 [256, 37]
0.042068705 0.026815293 -0.032472137 -0.06561889 0.1088936 -0.23883648 0.11255855 0.033781026
0.030846685 -0.24967915 -0.022588495 0.11976307 -0.06275245 0.01854219 0.015080555 0.16863485
0.011340639 -0.06228179 -0.12641302 0.05600595 0.15699846 0.004359653 0.12766336 -0.08642578
-0.044113625 -0.10740712 -0.18189484 0.09398331 0.24903555 0.046048425 -0.07248089 0.07862855
0.9465891 -0.22258662 -0.47332966 -0.10294141 0.057135344 -0.028443463 0.19278714 -0.03497225
0.12739883 -0.026130272 -0.16663097 -0.07244659 0.02391521 0.42792296 -0.094901584 0.2713888
-0.2843663 -0.0111923665 -0.13742663 0.04771998 -0.2483918 0.29848516 -0.10479538 0.1183301
0.047296196 -0.28048357 -0.239632 0.11976131 -0.11252263 0.06170889 -0.031917483 0.06687647
0.06734485 -0.116574615 0.021052472 -0.14942622 -0.015006725 -0.22893552 0.06091058 0.41392902
-0.122900546 0.11004888 0.045940828 -0.004014543 0.0912604 -0.07770009 -0.17724371 -0.1168707
-0.043555696 -0.08610681 0.12069909 -0.0610329 0.06899191 0.055066146 -0.10151708 -0.1322969
0.16461805 0.097812206 0.06884111 -0.07044187 0.13818376 0.07289905 -0.041124996 0.07045892
-0.08072261 0.20846319 0.028058233 -0.21272902 0.086798705 -0.18660408 -0.0901503 0.20682245
0.042521287 -0.041443262 0.3667602 0.31881678 0.62451774 -0.0703091 -0.027978076 0.15893014
0.013297233 0.14405555 -0.02711422 0.06308301 0.2271246 0.049368262 0.07297687 -0.004935166
-0.10580331 0.11165087 0.09834687 -0.08157994 0.10887766 -0.2817671 -0.11065139 0.011409321
-0.03861308 0.19779117 0.07464697 0.024910023 0.014791526 0.07407978 0.13892008 0.09029795
-0.17838456 -0.0935454 -0.046067312 0.07341205 0.07090439 -0.023896383 -0.06974097 -0.6840637
0.653647 0.8164183 0.10792159 0.00023644205 0.00042906887 -0.010237966 0.087706774 0.11134349
0.26433194 0.043565184 0.0025613336 0.041865923 0.16976982 -0.08630095 0.101285316 0.07814232
0.13597997 -0.044506807 0.014075669 0.24789062 0.049825672 0.023412473 0.05885829 -0.117725685
-0.07572992 0.07585493 0.02192809 0.309088 -0.040347617 0.117285885 0.091823496 -0.11153852
-0.048265986 0.008229744 -0.12755638 0.14402609 0.6956722 0.07077507 -0.024263995 0.09099726
-0.11183511 -0.13592228 -0.22819896 0.0063293627 -0.06156901 0.20397125 -0.13491109 -0.063828096
0.156706 0.23470189 0.03738972 0.041920945 -0.008608033 0.1399312 -0.26250038 0.09778505
-0.033685006 0.06374915 -0.065743074 -0.15835288 -0.04283067 -0.063226506 0.1314779 -0.02522883
0.025432851 -0.063916214 0.11236996 -0.121041566 0.12823735 -0.04433841 0.0734524 0.0766174
0.22706823 0.018005125 0.17225717 0.37217143 0.031449907 -0.07937647 -0.11073245 0.050477598
-0.008756628 0.11855356 0.09413459 -0.18864845 -0.085604236 0.16493347 0.073024094 0.012096088
-0.36022535 -0.009648903 0.07839872 -0.017262086 0.06382461 0.06293103 0.036695797 -0.10175565
-0.10045748 -0.21195523 -0.021805767 0.33601156 -0.240364 -0.021509582 0.2315842 -0.00631032
0.039469842 -0.026794637 0.110393904 -0.016727814 -0.12103837 -0.04010744 0.90531975 -0.3876624
00000000: 3c50 2c3d bfab db3c 8101 05bd 3263 86bd
00000010: 9c03 df3d 8d91 74be 1985 e63d f95d 0a3d
00000020: 30b2 fc3c e4ab 7fbe 820b b9bc 5746 f53d
00000030: 5b84 80bd cae5 973c 6f14 773c 9dae 2c3e
00000040: 16ce 393c 311b 7fbd 6a72 01be 7f66 653d
00000050: 34c4 203e 6cdb 8e3b 2fba 023e 0000 b1bd
00000060: 7db0 34bd 44f8 dbbd a442 3abe 527a c03d
00000070: 2d03 7f3e 469d 3c3d dc70 94bd 0108 a13d
00000080: aa53 723f bfed 63be 4458 f2be f2d2 d2bd
00000090: c006 6a3d 4402 e9bc fe69 453e 103f 0fbd
000000a0: d774 023e 270f d6bc 4fa1 2abe e15e 94bd
000000b0: d5e9 c33c b818 db3e c35b c2bd 79f3 8a3e
000000c0: 7698 91be 3060 37bc 91b9 0cbe 0776 433d
000000d0: 6c5a 7ebe 0cd3 983e f69e d6bd 0d57 f23d
000000e0: a8b9 413d 8b9b 8fbe 1762 75be 6b45 f53d
000000f0: 4472 e6bd 76c2 7c3d e8bb 02bd 88f6 883d
00000100: 19ec 893d acbe eebd 3c76 ac3c 3003 19be
00000110: c4de 75bc 136e 6abe 5f7d 793d 81ee d33e
00000120: 48b3 fbbd 4f61 e13d 732c 3c3d 6d8c 83bb
00000130: bce6 ba3d 3a21 9fbd 607f 35be e859 efbd
00000140: 7567 32bd c458 b0bd 1631 f73d a2fd 79bd
00000150: a14b 8d3d 0a8d 613d 30e8 cfbd d778 07be
00000160: a291 283e c451 c83d 91fc 8c3d d443 90bd
00000170: 0b80 0d3e 194c 953d af72 28bd c44c 903d
00000180: e551 a5bd 6077 553e 61da e53c a3d5 59be
00000190: 85c3 b13d 2415 3fbe b8a0 b8bd 44c9 533e
000001a0: cd2a 2e3d 69c0 29bd fec7 bb3e f43b a33e
000001b0: 65e0 1f3f 38fe 8fbd 4732 e5bc 95be 223e
000001c0: a3dc 593c 4c83 133e a41e debc aa31 813d
000001d0: 5a93 683e 6036 4a3d e674 953d 2cb7 a1bb
000001e0: 68af d8bd 36a9 e43d 156a c93d 6213 a7bd
000001f0: 40fb de3d c743 90be 329d e2bd 29ee 3a3c
00000200: c028 1ebd c589 4a3e 83e0 983d 1b10 cc3c
00000210: 2858 723c 24b7 973d 1141 0e3e 22ee b83d
00000220: 71aa 36be bb94 bfbd 14b1 3cbd 0f59 963d
00000230: 5236 913d 59c2 c3bc 5bd4 8ebd cc1e 2fbf
00000240: 6955 273f ca00 513f ff05 dd3d 6eed 7739
00000250: a6f4 e039 24bd 27bc 9c9f b33d 0e08 e43d
00000260: 8456 873e 6871 323d 0cdc 273b 9a7b 2b3d
00000270: 24d8 2d3e 8dbe b0bd ad6e cf3d 1509 a03d
00000280: 553e 0b3e c54c 36bd a39d 663c 0ad7 7d3e
00000290: 0116 4c3d 84cb bf3c 6415 713d 2a1a f1bd
000002a0: 4a18 9bbd d459 9b3d 8aa2 b33c c840 9e3e
000002b0: 8b43 25bd 9533 f03d f50d bc3d 4f6e e4bd
000002c0: 8eb2 45bd 0cd6 063c 249e 02be 937b 133e
000002d0: 9317 323f 85f2 903d 49c5 c6bc c55c ba3d
000002e0: ce09 e5bd 362f 0bbe fdac 69be 8b66 cf3b
000002f0: c92f 7cbd d7dd 503e 2226 0abe 4eb8 82bd
00000300: 8a77 203e b155 703e f725 193d 4cb5 2b3d
00000310: b508 0dbc 204a 0f3e 7366 86be 8743 c83d
00000320: 4af9 09bd ea8e 823d 4ea4 86bd 4227 22be
00000330: 366f 2fbd e67c 81bd 25a2 063e b1ac cebc
00000340: 8e58 d03c 81e6 82bd 3922 e63d a4e4 f7bd
00000350: a750 033e 319c 35bd 366e 963d 95e9 9c3d
00000360: 9384 683e 7c7f 933c 2f64 303e 418d be3e
00000370: 9ed1 003d 2190 a2bd b2c7 e2bd 99c1 4e3d
00000380: f677 0fbc 35cc f23d a3c9 c03d 0f2d 41be
00000390: 4651 afbd 52e4 283e a88d 953d ac2e 463c
000003a0: 756f b8be 6f16 1ebc 828f a03d 3869 8dbc
000003b0: 7ab6 823d fce1 803d 554e 163d 4465 d0bd
000003c0: a7bc cdbd cb0a 59be 02a2 b2bc b509 ac3e
000003d0: fb21 76be dd34 b0bc 6924 6d3e cdc6 cebb
000003e0: 21ab 213d 6d80 dbbc 3316 e23d c508 89bc
000003f0: f7e2 f7bd b347 24bd 09c3 673f b07b c6be

rnn.weight_hh_l0_reverse f4 [256, 64]
0.001034522 -0.1039858 0.1375734 0.092516616 0.100014016 -0.14463297 0.1352035 -0.06862828
0.08421808 -0.020099206 -0.17350838 -0.1300963 0.1048169 -0.15893796 -0.009714742 -0.10296327
0.028010475 -0.0018335074 0.16779813 -0.079640746 -0.19250461 0.028961204 -0.10951972 -0.08439339
0.12597172 0.09550017 -0.12375104 -0.15176216 0.05371805 0.017824708 -0.0142384125 0.016911205
0.0019122853 -0.039374437 -0.04472608 0.053019535 -0.21297567 0.021483496 0.040219296 0.17901446
0.18249424 0.023661148 -0.08497941 -0.037689615 0.04335036 0.0236768 0.15791185 0.08092301
0.08167431 -0.068773605 -0.1042925 -0.10462509 0.08883205 0.14551492 -0.07215726 -0.2315944
-0.15004012 -0.037653867 0.2817196 -0.10981718 -0.109133676 0.1841118 -0.25432405 0.08626819
-0.005464669 -0.037741277 -0.034084175 -0.08581776 -0.06736152 0.053362343 0.116097204 -0.14381823
-0.21680953 -0.04204253 -0.014420852 0.2670135 0.15128283 -0.11668654 0.23364161 -0.26496717
-0.05568987 0.026209671 -0.12179318 -0.034662854 0.06791132 -0.21487089 -0.22280633 -0.14253357
0.074380815 0.18125771 0.09451518 -0.13674277 0.1680029 -0.021809528 0.16783033 -0.089734174
-0.18983343 -0.11141754 0.1492939 -0.23923892 -0.123549536 -0.0617288 0.22376227 0.12377648
0.21368387 0.118157215 -0.037986763 -0.1793235 -0.24476996 0.2507391 -0.030269958 -0.12311697
0.07100266 0.12133885 -0.0540358 -0.05660424 0.02751744 0.15090668 0.22532044 -0.2283299
-0.021364817 0.03951696 0.05133148 -0.22238022 -0.056866508 -0.15764137 -0.13541311 0.29115263
-0.11903791 -0.30210802 0.13783464 0.076659195 0.08694494 -0.11211247 0.18275127 -0.40332535
-0.13753162 0.0037381186 0.08825176 0.0037493454 0.1717036 -0.3150839 0.07172362 -0.20369205
-0.21241798 -0.021278124 -0.11246617 -0.16183253 0.08547683 -0.13895361 -0.023064142 -0.24953434
0.11938753 0.192373 0.020160943 -0.0041965162 0.087780766 -0.24631886 0.17981423 0.10227976
-0.16620071 -0.06657022 -0.17977203 0.087164894 -0.12810257 -0.26834792 0.13558815 0.29509902
0.17662805 0.11910156 -0.075472414 -0.075536326 -0.010603592 0.31301406 -0.20149648 -0.11432452
0.07429467 -0.103678085 -0.13371162 -0.0726803 0.27481925 0.2412263 0.2777615 -0.19157366
-0.12290994 -0.18575151 0.34800243 -0.13914496 0.0005418991 0.15503728 0.095364645 0.27611658
-0.123858735 -0.05078781 -0.045861647 -0.02269957 0.029071411 0.00505255 -0.12722099 -0.05433175
-0.007904613 -0.025258547 0.19688243 -0.102376975 0.0854146 -0.062011838 -0.10029192 -0.14977531
-0.047756825 0.10583663 -0.15875335 0.10804107 0.13674776 0.05643941 -0.047021907 0.08797749
-0.06698213 0.0773509 -0.03308372 0.14623505 0.0688282 -0.05804917 0.13611968 -0.1629847
-0.06725265 -0.060179792 0.04067534 -0.1560021 -0.025365625 -0.13444282 0.12585266 0.00183587
0.106245674 -0.13380896 0.12895453 0.0036254707 0.033175528 -0.06368099 -0.07106482 0.025827782
-0.0066356757 0.18819316 -0.10718904 -0.17765379 -0.10782729 0.06676797 0.15053734 -0.11243878
-0.062483355 -0.13572407 -0.1503317 -0.06321258 0.24727827 -0.22053921 0.16596183 -0.020764869
00000000: cc98 873a 82f6 d4bd 0be0 0c3e 5a79 bd3d
00000010: 26d4 cc3d aa1a 14be c972 0a3e fc8c 8cbd
00000020: 877a ac3d 17a7 a4bc 2eac 31be f737 05be
00000030: 3eaa d63d a2c0 22be 952a 1fbc 68de d2bd
00000040: 3976 e53c 4d52 f0ba 46d3 2b3e b01a a3bd
00000050: ee1f 45be 0c40 ed3c e04b e0bd 71d6 acbd
00000060: bbfe 003e 9895 c33d 2f71 fdbd 8a67 1bbe
00000070: 7507 5c3d 1f05 923c 3b48 69bc 5e89 8a3c
00000080: a6a5 fa3a 1747 21bd b232 37bd 032b 593d
00000090: 4b16 5abe 28fe af3c fdbc 243d 914f 373e
000000a0: c5df 3a3e 06d5 c13c af09 aebd 6d60 1abd
000000b0: 2690 313d d9f5 c13c a5b3 213e f7ba a53d
000000c0: dc44 a73d 2dd9 8cbd 4e97 d5bd ae45 d6bd
000000d0: 94ed b53d dd01 153e 2fc7 93bd 1527 6dbe
000000e0: 1ea4 19be f13a 1abd 8d3d 903e d4e7 e0bd
000000f0: 7a81 dfbd ce87 3c3e c336 82be 60ad b03d
00000100: f710 b3bb 9996 1abd d99b 0bbd 39c1 afbd
00000110: d6f4 89bd 7992 5a3d 5fc4 ed3d 1645 13be
00000120: 5103 5ebe ca34 2cbd 7045 6cbc feb5 883e
00000130: e3e9 1a3e 5af9 eebd bf3f 6f3e c7a9 87be
00000140: 101b 64bd aab5 d63c b46e f9bd a3fa 0dbd
00000150: 1715 8b3d 1d07 5cbe 5827 64be 52f4 11be
00000160: f854 983d 9f9b 393e 2d91 c13d 4c06 0cbe
00000170: f408 2c3e e5a9 b2bc b7db 2b3e 8dc6 b7bd
00000180: b263 42be e12e e4bd 80e0 183e 0cfb 74be
00000190: 8a07 fdbd 57d7 7cbd f021 653e 867e fd3d
000001a0: f2cf 5a3e 69fc f13d 0298 1bbd 94a0 37be
000001b0: faa4 7abe e060 803e b4f8 f7bc c024 fcbd
000001c0: d869 913d 8180 f83d a554 5dbd d9d9 67bd
000001d0: 416c e13c 4887 1a3e 67ba 663e 50cf 69be
000001e0: 4505 afbc 89dc 213d f540 523d a4b7 63be
000001f0: dbec 68bd bd6c 21be bca9 0abe f511 953e
00000200: 26ca f3bd e7ad 9abe 8624 0d3e 7fff 9c3d
00000210: 3010 b23d 399b e5bd 2623 3b3e a980 cebe
00000220: 17d5 0cbe 39fb 743b 57bd b43d 94b7 753b
00000230: 12d3 2f3e ad52 a1be d5e3 923d a694 50be
00000240: 1984 59be 764f aebc aa54 e6bd 6db7 25be
00000250: 7a0e af3d db49 0ebe 03f1 bcbc ee85 7fbe
00000260: 7381 f43d 6dfd 443e 9028 a53c ee82 89bb
00000270: 67c6 b33d 033b 7cbe 3921 383e 0d78 d13d
00000280: 8530 2abe f855 88bd 2916 38be 8283 b23d
00000290: 522d 03be e664 89be 9fd7 0a3e 3817 973e
000002a0: fcdd 343e 85eb f33d 4891 9abd cab2 9abd
000002b0: b0ba 2dbc 6143 a03e 1855 4ebe f922 eabd
000002c0: ce27 983d 2d55 d4bd b3eb 08be 69d9 94bd
000002d0: 1cb5 8c3e 0704 773e c136 8e3e e32b 44be
000002e0: 35b8 fbbd a535 3ebe 602d b23e 047c 0ebe
000002f0: 3c0e 0e3a 18c2 1e3e 8a4e c33d 275f 8d3e
00000300: a6a9 fdbd e106 50bd 6cd9 3bbd 73f4 b9bc
00000310: 2b27 ee3c dd8f a53b 3846 02be f88a 5ebd
00000320: 5a82 01bc 03eb cebc 8c9b 493e 05ab d1bd
00000330: daed ae3d 2000 7ebd da65 cdbd b35e 19be
00000340: a99c 43bd e0c0 d83d 3d90 22be a344 dd3d
00000350: 9b07 0c3e 032d 673d 0b9a 40bd 8b2d b43d
00000360: ed2d 89bd 266a 9e3d cb82 07bd a4be 153e
00000370: cdf5 8c3d f7c4 6dbd f562 0b3e 76e5 26be
00000380: c2bb 89bd 167f 76bd 2f9b 263d 04bf 1fbe
00000390: 92cb cfbc 61ab 09be 85df 003e 93a1 f03a
000003a0: 5597 d93d 3705 09be a80c 043e 4e99 6d3b
000003b0: 10e3 073d 2e6b 82bd 6f8a 91bd c994 d33c
000003c0: 1570 d9bb b5b5 403e ed85 dbbd e0ea 35be
000003d0: 8ed4 dcbd a5bd 883d 7626 1a3e 4e46 e6bd
000003e0: 8cee 7fbd 40fb 0abe 8ef0 19be 9975 81bd
000003f0: 8436 7d3e 08d5 61be e6f1 293e 161b aabc

rnn.bias_ih_l0_reverse f4 [256]
0.13564502 0.20655051 0.06584752 0.06396691 0.107591964 0.053368185 0.117824934 0.047813956
0.1059847 0.17184575 0.06613891 0.019106327 -0.1277633 0.13943836 0.087911226 0.37872577
0.26947764 0.15458159 0.018718753 0.26904348 0.06467722 0.0060570897 0.09564607 -0.030723188
0.15026927 0.030243842 0.050985012 -0.024882754 0.027268922 0.03947473 -0.011897595 -0.028332701
0.29986447 0.007820124 0.089891866 -0.027283506 0.28035852 0.007285637 0.04086211 0.091805086
-0.10589686 0.080158606 0.0040182015 -0.020428631 0.13313453 0.22993286 0.15649794 0.03650255
0.18177715 0.02195387 -0.061010256 0.0447188 -0.024781987 0.22805427 -0.07109465 0.12583186
0.31816065 0.23459476 -0.09840357 0.07299024 0.03128407 0.061270818 0.21065412 0.051810015
-0.115689605 0.301506 -0.15752368 -0.053609688 -0.22987154 0.046992265 -0.15313609 -0.085345015
-0.19025205 -0.04349945 -0.17908415 -0.022797735 0.14850706 0.25481233 -0.15362039 -0.030561095
-0.042345975 -0.23618038 -0.11139962 -0.1823703 -0.18206918 -0.122292444 0.09972535 0.096018836
-0.08652049 0.02012648 -0.18621542 -0.0411627 -0.12581293 -0.03616015 0.0330159 -0.16053307
0.38159224 0.061520398 -0.13663478 -0.0003478742 0.24252975 -0.11849718 0.11340528 0.032988165
-0.12815292 -0.031527344 -0.096655056 -0.20205359 0.110001616 0.21174231 0.004196016 -0.07422696
0.35837552 -0.039318085 0.0033215077 -0.13958146 -0.038210485 0.10729336 0.1530807 -0.045104276
0.14131756 -0.0972875 0.059756897 0.035239197 0.10191405 -0.09469684 -0.18793398 -0.040900763
-0.06411872 -0.05270682 0.09574603 -0.1926198 0.10331049 0.08616664 0.02435475 -0.04166436
0.03200869 -0.09158472 0.14318128 -0.06515705 0.1265766 -0.31603578 0.048922163 0.12933502
-0.13989045 -0.07076599 -0.005643469 -0.081375405 0.017096296 0.031677477 0.10390509 -0.049307857
0.08449813 -0.061271384 0.053438544 0.1594702 0.28045473 -0.18487553 0.045943417 -0.0036126627
0.07777049 -0.20509492 -0.06746932 -0.046466358 -0.0059422334 -0.26644987 -0.11273596 0.057311505
0.06886778 -0.022512041 -0.0563841 -0.076730825 -0.16864094 -0.13150553 -0.14098802 0.00089767715
-0.08947797 0.12017291 -0.14165859 -0.009857479 0.10020872 -0.10252243 0.096069336 0.0853524
0.1664118 -0.073642194 -0.026824798 0.07295112 0.020617243 0.11126899 -0.15164982 -0.011773215
0.030296465 0.0128133 0.085234106 0.105180524 0.14439191 0.047083717 0.116758905 0.10652655
-0.04322181 0.18275456 0.16714291 0.15765335 -0.0059231212 -0.049877588 -0.05405042 -0.083504744
0.2356318 0.016339427 -0.03809447 0.17570813 0.022497825 0.033509344 -0.069943026 -0.027890142
0.068820074 0.10332533 -0.12295522 -0.10706213 -0.0036321764 -0.029053265 -0.055665225 0.048290726
-0.026281 -0.07295625 0.11261949 -0.023624241 0.010852621 -0.15912315 -0.06409922 0.09954981
-0.033737227 0.16676033 -0.0019812253 -0.02726669 -0.020828506 0.083477296 -0.030556591 0.17662387
0.10457964 0.2542293 0.09307036 0.045195214 0.096759684 -0.001249733 -0.0072768447 0.11474207
0.15640114 0.009468858 0.08019069 0.07231117 0.07692485 -0.03886308 -0.04395354 -0.054446355
00000000: 87e6 0a3e fa81 533e 11db 863d 1501 833d
00000010: 2d59 dc3d 9998 5a3d 334e f13d 91d8 433d
00000020: 820e d93d 55f8 2f3e d673 873d df84 9c3c
00000030: 62d4 02be eec8 0e3e cd0a b43d 58e8 c13e
00000040: f9f8 893e a34a 1e3e 1258 993c 11c0 893e
00000050: 7e75 843d 8d7a c63b 16e2 c33d 32af fbbc
00000060: 30e0 193e efc1 f73c a9d5 503d ebd6 cbbc
00000070: 1363 df3c 41b0 213d 21ee 42bc fb19 e8bc
00000080: d687 993e fa1f 003c 3a19 b83d a981 dfbc
00000090: 278b 8f3e 5abc ee3b 075f 273d 4e04 bc3d
000000a0: 74e0 d8bd 322a a43d 1eab 833b f259 a7bc
000000b0: 6b54 083e 8573 6b3e ff40 203e b383 153d
000000c0: ca23 3a3e 9ad8 b33c e4e5 79bd 0f2b 373d
000000d0: 9803 cbbc 0f87 693e 129a 91bd 11da 003e
000000e0: f4e5 a23e 9c39 703e d087 c9bd e87b 953d
000000f0: ba23 003d 1cf7 7a3d b7b5 573e bd36 543d
00000100: acee ecbd ff5e 9a3e e34d 21be d595 5bbd
00000110: 7263 6bbe f67a 403d b5cf 1cbe 5ec9 aebd
00000120: 6fd1 42be 7b2c 32bd d661 37be 51c2 babc
00000130: 3c12 183e c376 823e aa4e 1dbe 435b fabc
00000140: f972 2dbd 45d9 71be 7c25 e4bd 48bf 3abe
00000150: 5870 3abe 7674 fabd ce3c cc3d 86a5 c43d
00000160: a831 b1bd 4ae0 a43c 41af 3ebe 389a 28bd
00000170: 1bd5 00be aa1c 14bd ae3b 073d c862 24be
00000180: 0f60 c33e d0fc 7b3d fde9 0bbe e262 b6b9
00000190: b859 783e a6ae f2bd 0741 e83d 991e 073d
000001a0: 853a 03be d122 01bd 16f3 c5bd 23e7 4ebe
000001b0: 8748 e13d fad2 583e bc7e 893b 4e04 98bd
000001c0: ff7c b73e 000c 21bd a7ad 593b 71ee 0ebe
000001d0: 9982 1cbd 9fbc db3d 30c1 1c3e 43bf 38bd
000001e0: 8db5 103e ab3e c7bd a6c3 743d fa56 103d
000001f0: 50b8 d03d 6bf0 c1bd c471 40be 8f87 27bd
00000200: ad50 83bd 1be3 57bd 7f16 c43d 203e 45be
00000210: 7394 d33d 2378 b03d 9d83 c73c 3fa8 2abd
00000220: 8b1b 033d c590 bbbd 1d9e 123e 0f71 85bd
00000230: 4c9d 013e 71cf a1be 9b62 483d 6670 043e
00000240: 713f 0fbe c2ed 90bd d9ec b8bb 26a8 a6bd
00000250: 880d 8c3c 3ec0 013d 31cc d43d 09f7 49bd
00000260: 5b0d ad3d b4f7 7abd 60e2 5a3d 284c 233e
00000270: c397 8f3e 0350 3dbe 2a2f 3c3d 6cc2 6cbb
00000280: 2246 9f3d 6704 52be 5b2d 8abd 8253 3ebd
00000290: 11b7 c2bb 1e6c 88be 1ce2 e6bd 78bf 6a3d
000002a0: 8d0a 8d3d 2c6b b8bc 04f3 66bd 0d25 9dbd
000002b0: 36b0 2cbe 63a9 06be 2a5f 10be 1852 6b3a
000002c0: 3a40 b7bd 371d f63d f30e 11be 4381 21bc
000002d0: 3b3a cd3d 48f7 d1bd 00c0 c43d 3dcd ae3d
000002e0: db67 2a3e b8d1 96bd aebf dbbc 6667 953d
000002f0: 7ee5 a83c ffe0 e33d 174a 1bbe 71e4 40bc
00000300: 4b30 f83c e0ee 513c 388f ae3d e368 d73d
00000310: 79db 133e dbda 403d 4b1f ef3d 982a da3d
00000320: 5a09 31bd 0324 3b3e 8327 2b3e e16f 213e
00000330: be16 c2bb 714c 4cbd f963 5dbd 8904 abbd
00000340: 7649 713e 43da 853c f208 1cbd d5ec 333e
00000350: 5c4d b83c 1841 093d 4a3e 8fbd de79 e4bc
00000360: 8af1 8c3d 3b9c d33d f2cf fbbd 6443 dbbd
00000370: cf09 6ebb 1d01 eebc 3801 64bd 7fcc 453d
00000380: 404b d7bc 166a 95bd 0ca5 e63d a087 c1bc
00000390: 31cf 313c 2ef1 22be 7446 83bd c5e0 cb3d
000003a0: 0c30 0abd 38c3 2a3e 72d7 01bb 655e dfbc
000003b0: 8ba0 aabc 25f6 aa3d d151 fabc e3dc 343e
000003c0: da2d d63d 582a 823e ac9b be3d 9e1e 393d
000003d0: f129 c63d 15ce a3ba 9972 eebb e4fd ea3d
000003e0: 9f27 203e 4523 1b3c 043b a43d e117 943d
000003f0: c78a 9d3d e52e 1fbd a108 34bd 2403 5fbd
